weights.pth (torch_old, 87828 bytes, 4 tensors)

conv1.weight f4 [10, 1, 5, 5]
0.16538976 -0.05819098 -0.10645292 -0.059942476 -0.27837583 0.25378546 0.13152751 0.16915584
0.07825173 -0.0063328957 0.1064448 0.18175176 0.27720675 0.14279552 0.11490781 -0.123573124
0.031814273 0.07423489 0.29137838 0.20105496 -0.20403816 -0.25232032 -0.18928885 -0.20663664
-0.060129244 0.08491474 0.30424592 0.2206335 -0.29853725 -0.0163005 0.12272773 0.43720752
0.21564515 -0.34920296 -0.3907125 0.02901025 0.49535695 0.060340546 -0.092747554 -0.2969467
0.32855007 0.14669788 0.26055637 -0.073774345 -0.19751842 0.18403633 0.029225724 0.15424249
-0.028326219 -0.015654335 -0.26796174 -0.18831475 0.052043825 0.036705498 0.32711732 0.086565465
-0.03795771 -0.022053322 0.3598487 0.1830345 -0.1370925 0.22238265 0.36943617 0.38132024
-0.11232262 0.03150345 0.1348753 0.22441 -0.07806626 -0.20263496 0.20588675 0.046444602
0.17618825 0.022703001 0.027983619 0.15363556 0.2890705 0.3055206 -0.014494123 0.17635995
-0.14306636 -0.06549354 0.14193933 0.13175157 0.26276144 -0.14616838 -0.20904085 0.11034015
-0.0015209449 0.18176505 0.05844062 -0.1998201 -0.08040679 -0.050438177 -0.18492857 -0.061737828
0.04017085 -0.09187755 -0.21164781 -0.109827556 0.38229543 0.18399471 0.3111992 0.1946827
-0.11165961 -0.054284073 0.5430897 0.40925446 0.28748184 0.017156003 0.09736797 0.54389
0.5810518 -0.025472501 -0.016177444 0.11389947 0.37628126 0.36335626 -0.08006984 -0.22595398
-0.18798524 0.097810216 0.33090022 -0.04583229 0.12757061 -0.23238957 -0.3268878 -0.06704337
0.23723443 0.24926946 -0.20842773 0.041148294 0.34561253 0.3642821 0.13564278 0.16111068
0.20802921 0.2345418 -0.0115824975 -0.21811432 -0.08253285 0.00067172194 -0.04324314 0.18624005
0.12484149 -0.0498533 0.0666603 0.089705855 0.2243874 0.2516789 -0.08543798 0.174795
-0.0330444 -0.026380397 -0.1904875 -0.15517849 -0.15711902 -0.12527375 0.10938451 -0.06571076
-0.15877655 0.047104158 0.024963304 0.097175576 -0.11172612 0.07987625 -0.063780256 -0.06464548
-0.16361569 -0.05806579 0.024116993 0.16449274 0.110728614 0.15141496 0.32569242 0.17318845
0.21260104 0.13364506 -0.08850484 0.13770062 -0.118193254 -0.057481322 -0.20040686 -0.109612964
-0.1979183 0.10891994 -0.27906108 -0.25025013 -0.072433986 -0.09026718 0.022698922 -0.12159656
-0.075143486 0.089257464 0.2334512 -0.120882094 0.19208354 0.3110674 0.30534422 -0.11949977
0.029576011 -0.2216901 0.085434355 -0.1940766 -0.06830937 0.01808518 -0.024682073 0.09414296
0.20034367 0.12737635 0.17506847 0.23470879 0.1471649 0.48382384 0.3868604 0.2889764
0.31069824 0.03222544 0.022445766 0.28741154 -0.2506411 0.053230133 -0.27136335 -0.29388645
0.022773357 -0.007060197 0.13237788 0.39340213 0.40651852 0.37425363 0.018452935 -0.072994985
0.34990954 0.20155917 0.18742579 -0.0027719778 -0.2201222 0.056897726 0.17854452 -0.013016802
-0.26678953 -0.20149884 -0.13893415 -0.10813305 -0.08924861 -0.083845235 -0.36475456 -0.3319704
-0.22703974 0.18005875
00000000: ef5b 293e aa59 6ebd fd03 dabd 3e86 75bd
00000010: 4787 8ebe 2bf0 813e 26af 063e 3037 2d3e
00000020: 7142 a03d 2e84 cfbb bbff d93d 221d 3a3e
00000030: 0bee 8d3e fd38 123e c954 eb3d e813 fdbd
00000040: af4f 023d 7608 983d 8c2f 953e 5ae1 4d3e
00000050: 61ef 50be 2130 81be f0d4 41be 8e98 53be
00000060: 154a 76bd c7e7 ad3d 1fc6 9b3e c0ed 613e
00000070: e0d9 98be a088 85bc ad58 fb3d aad9 df3e
00000080: 15d2 5c3e bbca b2be 780b c8be e7a6 ed3c
00000090: 6d9f fd3e a627 773d 6ef2 bdbd 6609 98be
000000a0: b737 a83e f837 163e a567 853e 0117 97bd
000000b0: 4542 4abe 0574 3c3e c96a ef3c bef1 1d3e
000000c0: 630c e8bc 853d 80bc 4832 89be 95d5 40be
000000d0: e82b 553d 8158 163d ec7b a73e 3c49 b13d
000000e0: 8b79 1bbd 2ba9 b4bc 173e b83e 656d 3b3e
000000f0: fa61 0cbe 47b8 633e bd26 bd3e 683c c33e
00000100: 6709 e6bd c309 013d c01c 0a3e bccb 653e
00000110: 34e1 9fbd 8a7f 4fbe fad3 523e b23c 3e3d
00000120: b16a 343e a5fb b93c e73d e53c a452 1d3e
00000130: 0c01 943e 326d 9c3e c278 6dbc b497 343e
00000140: fd7f 12be 7a21 86bd 8b58 113e e2e9 063e
00000150: ab88 863e 2aad 15be ce0e 56be 04fa e13d
00000160: 715a c7ba 9e20 3a3e 6e5f 6f3d a49d 4cbe
00000170: 51ac a4bd 4398 4ebd ea5d 3dbe cee0 7cbd
00000180: 308a 243d 4c2a bcbd 34ba 58be 45ed e0bd
00000190: 3abc c33e 1c69 3c3e 8055 9f3e e75a 473e
000001a0: cbad e4bd fa58 5ebd ed07 0b3f cd89 d13e
000001b0: d230 933e bf8a 8c3c dc68 c73d 603c 0b3f
000001c0: d0bf 143f b5ab d0bc 8f86 84bc 2044 e93d
000001d0: f0a7 c03e d509 ba3e a8fb a3bd 7b60 67be
000001e0: 347f 40be b950 c83d c16b a93e a4ba 3bbd
000001f0: dfa1 023e 88f7 6dbe d65d a7be 094e 89bd
00000200: 95ed 723e 7e40 7f3e 146e 55be 1d8b 283d
00000210: 20f4 b03e 2f83 ba3e f1e5 0a3e 33fa 243e
00000220: 9c05 553e ba2b 703e 84c4 3dbc 5c59 5fbe
00000230: fc06 a9bd 7f16 303a b81f 31bd b6b5 3e3e
00000240: e5ac ff3d f932 4cbd 3285 883d b4b7 b73d
00000250: d0c5 653e 0fdc 803e 1cfa aebd 76fd 323e
00000260: 9159 07bd b41b d8bc 280f 43be 1ce7 1ebe
00000270: cfe3 20be c347 00be fc04 e03d 5d93 86bd
00000280: 5296 22be 4af0 403d d87f cc3c fd03 c73d
00000290: aad0 e4bd 2996 a33d 399f 82bd d964 84bd
000002a0: df8a 27be 65d6 6dbd 0091 c53c c970 283e
000002b0: afc5 e23d 860c 1b3e 28c1 a63e 5058 313e
000002c0: 16b4 593e 40da 083e 0742 b5bd 6401 0d3e
000002d0: 4e0f f2bd 8971 6bbd 7537 4dbe c37c e0bd
000002e0: 18ab 4abe 6b11 df3d 18e1 8ebe c920 80be
000002f0: 4558 94bd 00de b8bd 17f3 b93c 9e07 f9bd
00000300: d4e4 99bd 9ecc b63d d50d 6f3e 0891 f7bd
00000310: 8cb1 443e 3a44 9f3e 1456 9c3e 4cbc f4bd
00000320: 6449 f23c bb02 63be 35f8 ae3d 04bc 46be
00000330: c8e5 8bbd 5f27 943c 0f32 cabc 06ce c03d
00000340: e426 4d3e f26e 023e 2645 333e 8057 703e
00000350: 65b2 163e c2b7 f73e 9112 c63e b7f4 933e
00000360: d713 9f3e d3fe 033d 2fe0 b73c 9b27 933e
00000370: 0854 80be d707 5a3d 23f0 8abe 4978 96be
00000380: 318f ba3c 3a59 e7bb 118e 073e 016c c93e
00000390: 3223 d03e 2c9e bf3e 9c2a 973c 657e 95bd
000003a0: 5827 b33e 8765 4e3e 8cec 3f3e 12aa 35bb
000003b0: b767 61be 970d 693d 60d4 363e 6d44 55bc
000003c0: a398 88be b655 4ebe c144 0ebe dc74 ddbd
000003d0: fac7 b6bd 0db7 abbd 1cc1 babe 06f8 a9be
000003e0: 1b7d 68be 5261 383e

conv2.weight f4 [20, 10, 5, 5]
0.08894702 0.0001953395 -0.008012381 0.011292497 0.005154464 -0.043203175 0.012232446 -0.004409202
-0.036972947 -0.008647472 0.040997114 0.031080883 -0.0558471 0.038387235 0.0055341073 -0.06514969
0.015261178 -0.018918788 0.09459073 -0.042208787 -0.018498857 -0.011198293 0.007691742 0.077079825
-0.0023939204 -0.0050674747 -0.050322536 -0.029016053 -0.055795588 -0.012631607 0.0038401478 -0.015640933
0.043247793 0.06798901 0.013778696 -0.031413816 -0.10522781 0.11063442 0.08836011 -0.009892751
-0.021201955 -0.07416236 0.06891528 0.1000117 -0.013060421 -0.05390521 -0.05217355 -0.040446464
-0.041268896 -0.023319941 0.011284543 -0.053779747 -0.021649461 -0.0047721905 0.050092086 -0.047189277
-0.12173223 0.10834545 0.08547567 0.077091806 -0.07025546 -0.040988367 0.018542513 -0.034097977
0.015527386 -0.12618428 -0.047018345 0.028216014 -0.010825555 0.015646277 -0.06413108 -0.08918765
-0.07728621 -0.027316911 0.035139196 0.0030648964 -0.028946731 0.013412476 -0.038379386 -0.024053687
0.04613249 0.0071265586 0.056918725 -0.046609104 -0.0019908673 -0.041810438 -0.044336844 -0.044710625
-0.015981764 0.004787886 -0.042033542 -0.012030808 -0.033051763 0.05620485 -0.012233919 -0.0338568
-0.008584842 0.017788734 -0.014144623 -0.030635074 0.10235982 0.005912189 -0.06955027 -0.034959104
0.06145707 0.05202945 -0.02706501 0.0352871 0.10372901 0.018762168 -0.0877727 -0.19858515
0.1417751 0.0542446 -0.036056962 -0.101334326 -0.19333196 0.029261537 0.028630476 -0.05242997
-0.13794327 -0.13581757 -0.09652466 -0.06644336 0.02488799 0.008965903 -0.060021706 0.027176382
0.017019339 0.030154046 -0.05642574 -0.08781785 0.07236323 0.038639266 -0.015480026 -0.04680708
0.004857152 0.10231779 -0.020363433 -0.06327707 -0.07114901 0.046517577 0.05478755 -0.0629896
0.044724014 -0.053919267 -0.005753277 -0.023941763 0.024619529 0.051940825 -0.045126233 0.03600477
-0.0023449943 -0.044837493 -0.009591209 -0.066979796 -0.033520754 -0.051584117 0.03277486 -0.029306713
-0.03150998 0.0077367453 0.024269044 -0.055362493 0.014193141 0.002921377 -0.07404857 0.066902585
-0.03213399 -0.01514279 -0.05197876 0.06149793 0.03756214 0.062669404 0.004266159 0.018433575
-0.025031779 -0.018137885 0.030454068 0.00369089 -0.016215326 -0.015568562 0.019400809 -0.0036616232
0.029772185 -0.06939641 0.007077586 -0.043385554 0.044080626 0.057912365 -0.08136248 0.013765218
-0.10017858 0.086822495 0.023639714 0.0026086785 -0.04907032 0.038265534 -0.014418759 -0.057099443
0.060069837 0.05298562 0.027860954 0.025365707 0.0963631 -0.006137328 -0.059674874 -0.098370284
0.069696635 -0.048753615 -0.032874066 -0.03086276 0.03253524 0.023296773 -0.04570421 -0.03776489
-0.038178302 -0.017792849 0.0013952916 -0.052768815 -0.09783682 -0.10275063 0.020348389 0.046668865
0.055714253 0.0771642 -0.03003546 0.014482934 -0.009761764 -0.07541799 0.053597454 -0.03304682
-0.008923286 0.008972664 0.06873317 -0.08089832 -0.08364963 0.09717078 0.013214603 0.021003969
-0.029944548 0.03828713 0.1438681 -0.054692328 0.013599266 -0.03325645 0.049585797 0.037987214
-0.008210704 0.03241074 -0.08663095 -0.08151036 -0.09640777 -0.0687043 -0.037799038 -0.08515649
00000000: db29 b63d 0cd4 4c39 5d46 03bc 2a04 393c
00000010: c7e6 a83b d0f5 30bd 996a 483c 117b 90bb
00000020: f270 17bd 20ae 0dbc 97ec 273d 569d fe3c
00000030: eebf 64bd ef3b 1d3d 7557 b53b 336d 85bd
00000040: 050a 7a3c 93fb 9abc c9b8 c13d 1fe3 2cbd
00000050: ea8a 97bc 0c79 37bc 020b fc3b 07dc 9d3d
00000060: 52e3 1cbb 0f0d a6bb 011f 4ebd 13b3 edbc
00000070: ea89 64bd cdf4 4ebc fdaa 7b3b 6a21 80bc
00000080: 9924 313d d23d 8b3d 0ac0 613c c6ab 00bd
00000090: ae81 d7bd 4c94 e23d 25f6 b43d 3515 22bc
000000a0: b9af adbc 6fe2 97bd 7423 8d3d efd2 cc3d
000000b0: 60fb 55bc b6cb 5cbd efb3 55bd 31ab 25bd
000000c0: 9309 29bd 7609 bfbc cee2 383c 2748 5cbd
000000d0: 365a b1bc 0960 9cbb 5c2d 4d3d 8b49 41bd
000000e0: bf4e f9bd 38e4 dd3d de0d af3d 4fe2 9d3d
000000f0: 18e2 8fbd 6be3 27bd 78e6 973c 52aa 0bbd
00000100: 9466 7e3c 7436 01be 4f96 40bd 4525 e73c
00000110: ab5d 31bc 9f2c 803c 2857 83bd 04a8 b6bd
00000120: 3c48 9ebd b7c7 dfbc 1eee 0f3d 6edc 483b
00000130: b221 edbc 00c0 5b3c b433 1dbd 3d0c c5bc
00000140: 6cf5 3c3d e885 e93b 9c23 693d 30e9 3ebd
00000150: 3679 02bb 6c41 2bbd 8d9a 35bd 7d22 37bd
00000160: 30ec 82bc b3e3 9c3b 5d2b 2cbd de1c 45bc
00000170: 4961 07bd 0f37 663d c770 48bc 6ead 0abd
00000180: 70a7 0cbc aeb9 913c d9be 67bc 68f6 fabc
00000190: 06a2 d13d 09bb c13b 5f70 8ebd 4731 0fbd
000001a0: 69ba 7b3d d51c 553d 71b7 ddbc 3589 103d
000001b0: e06f d43d 1eb3 993c 2cc2 b3bd e859 4bbe
000001c0: 7e2d 113e 962f 5e3d 77b0 13bd 5f88 cfbd
000001d0: d0f8 45be e4b5 ef3c 768a ea3c cfc0 56bd
000001e0: 0041 0dbe c313 0bbe b9ae c5bd 7513 88bd
000001f0: e6e1 cb3c b9e5 123c 52d9 75bd 01a1 de3c
00000200: 246c 8b3c 9e05 f73c ad1e 67bd d8d9 b3bd
00000210: 2c33 943d 3544 1e3d ef9f 7dbc c8b8 3fbd
00000220: be28 9f3b fd8b d13d 37d1 a6bc 6997 81bd
00000230: 92b6 91bd 3789 3e3d e968 603d b100 81bd
00000240: 8730 373d 73da 5cbd fc85 bcbb 8421 c4bc
00000250: e5ae c93c e7bf 543d 49d6 38bd bd79 133d
00000260: 7aae 19bb 85a7 37bd 7224 1dbc b42c 89bd
00000270: 0f4d 09bd de49 53bd ee3e 063d a214 f0bc
00000280: 9c10 01bd 8684 fd3b e0cf c63c c8c3 62bd
00000290: 598a 683c 9374 3f3b c7a6 97bd 3904 893d
000002a0: ee9e 03bd 7719 78bc aee7 54bd 41e5 7b3d
000002b0: c2da 193d d158 803d 23cb 8b3b 0202 973c
000002c0: 720f cdbc e795 94bc cf7a f93c dce2 713b
000002d0: 01d6 84bc 4813 7fbc 72ee 9e3c d8f7 6fbb
000002e0: cce4 f33c b41f 8ebd 18eb e73b 0db5 31bd
000002f0: e38d 343d 8435 6d3d 5fa1 a6bd 8287 613c
00000300: 6d2a cdbd fecf b13d 13a8 c13c 5df6 2a3b
00000310: f6fd 48bd 52bc 1c3d a93c 6cbc 1be1 69bd
00000320: ca0b 763d 7307 593d a83c e43c becb cf3c
00000330: 045a c53d a41b c9bb a46d 74bd 5c76 c9bd
00000340: 1cbd 8e3d dfb1 47bd f5a6 06bd e6d3 fcbc
00000350: ac43 053d e0d8 be3c 5634 3bbd 5baf 1abd
00000360: da60 1cbd 4fc2 91bc 38e2 b63a 1d24 58bd
00000370: ac5e c8bd ec6e d2bd aab1 a63c da27 3f3d
00000380: a134 643d 4408 9e3d ed0c f6bc d449 6d3c
00000390: ceef 1fbc bf74 9abd 0189 5b3d 1a5c 07bd
000003a0: f932 12bc 1502 133c fac3 8c3d 05ae a5bd
000003b0: 7f50 abbd 7901 c73d 1082 583c 8410 ac3c
000003c0: 454e f5bc f7d2 1c3d 2952 133e 1005 60bd
000003d0: 75cf 5e3c ea37 08bd 7a1a 4b3d 7b98 1b3d
000003e0: 3086 06bc 20c1 043d 916b b1bd e7ee a6bd
000003f0: 7071 c5bd d7b4 8cbd 2ad3 1abd 8766 aebd

fc1.weight f4 [50, 320]
-0.05727766 -0.01856089 -0.009456963 -0.06342302 0.09173597 0.12455292 0.029611696 0.022571659
0.06350803 0.023396455 -0.022447245 -0.007891683 0.04081151 -0.043074492 0.059991356 -0.010411234
-0.025067711 0.0063643693 -0.077378616 -0.048234485 0.03263117 -0.040225282 -0.02368722 0.05036307
-0.019737424 -0.032371685 0.054781128 0.006922147 -0.09798864 -0.04236926 -0.023549844 0.01545531
0.046176556 0.025658736 0.04311472 -0.055344235 0.04003784 0.02605832 -0.0059333825 0.060953643
0.12790522 0.013024425 0.04455983 0.0064236317 0.021386014 -0.020968525 -0.067260824 -0.048078157
-0.032895695 0.03205381 0.014597927 -0.038696665 0.06296177 0.053640116 0.080275826 -0.027686607
0.069868766 0.07179834 0.02971091 -0.03178253 0.007959349 0.05409323 0.047549658 0.05179171
-0.07511365 -0.047069814 0.07240515 0.036956977 -0.031124033 0.0391849 0.07348974 0.06322028
-0.05308307 -0.023329364 -0.014594213 -0.008490455 0.030026754 0.055479616 0.051102612 0.012046961
0.008935916 0.001817291 -0.043624435 0.014735929 -0.065330505 0.0077514164 0.011104309 0.007763938
-0.079955526 0.018215604 0.004114088 -0.013563271 0.0039888914 -0.049853925 0.035202168 0.031014135
0.06597088 0.015742179 -0.0468604 -0.026368316 0.02329641 0.052502126 -0.0034270473 -0.022645188
-0.0010726568 0.005356411 -0.037137337 -0.02035418 -0.05012746 -0.049422543 -0.010056149 0.025498752
0.010026761 -0.043176044 -0.05610285 -0.04303066 -0.10654791 -0.006506451 0.01480481 0.023587206
-0.042376913 -0.06474518 0.027926337 0.09287206 0.0708562 0.018522948 0.05581376 0.05387597
-0.009471234 -0.0064181467 0.055085804 -0.0253154 -0.026863746 0.049255755 0.08182953 -0.049400903
0.034980796 0.058773685 0.07081711 -0.055753995 -0.07808575 0.00624494 0.12034567 0.0020973955
0.06181352 0.052885275 0.03595756 -0.02338347 0.02700241 0.06321069 0.033187352 0.07034367
-0.02053813 0.022473197 0.010276453 0.024721649 0.004544778 0.013997786 -0.04610938 -0.033171423
0.0032287915 -0.12629132 -0.110501416 -0.010316786 0.04226532 0.013133337 0.024045346 -0.03479795
-0.0072489437 0.024400793 -0.0004563224 -0.0034104597 0.005528708 0.031667802 0.09530532 -0.039702754
0.020353006 0.07333675 -0.012885878 -0.047168285 0.042633303 -0.0065438445 -0.0023974369 0.025926463
0.047154166 0.05653768 0.0062686503 0.004296905 0.075148314 0.025038332 -0.0092521105 0.03531477
-0.028662486 0.0076331194 -0.044449713 0.0227132 0.05775393 -0.0228105 -0.048780013 0.039932802
-0.012786665 0.044468984 0.047157247 -0.02095603 -0.014771473 -0.03695623 0.04948125 -0.03846861
0.04862047 0.059403 0.13838238 0.0681025 0.122603945 0.019601632 0.06296472 -0.029682817
0.060864996 0.004967982 0.034493607 0.02863281 -0.03645462 0.057601664 -0.026257971 0.0011161163
-0.06526117 -0.026801853 -0.0124490475 0.033619005 -0.007092987 -0.01377664 -0.010751799 0.00080391584
-0.012365702 -0.026228774 0.012868623 -0.004892164 0.056274183 -0.021222735 -0.06460514 -0.0005318458
0.053017624 0.086151876 0.083286084 -0.07223562 0.013738223 0.06585236 -0.026919613 0.042382423
-0.011527388 -0.026329879 -0.025004536 0.056919698 0.021635294 -0.026853755 0.0031691121 0.042751085
00000000: fb9b 6abd 020d 98bc 61f1 1abc eee3 81bd
00000010: 11e0 bb3d 9a15 ff3d 3a94 f23c 33e8 b83c
00000020: 7f10 823d eca9 bf3c 49e3 b7bc 1e4c 01bc
00000030: f829 273d e16e 30bd 7fb9 753d e193 2abc
00000040: cd5a cdbc 338c d03b ae78 9ebd 8691 45bd
00000050: 43a8 053d 44c3 24bd b30b c2bc 8249 4e3d
00000060: 61b0 a1bc 2c98 04bd 2d62 603d 2dd3 e23b
00000070: 45ae c8bd 648b 2dbd 9aeb c0bc 4538 7d3c
00000080: a123 3d3d 4532 d23c 1099 303d a3b0 62bd
00000090: b8fe 233d 4278 d53c d26c c2bb 87aa 793d
000000a0: 96f9 023e 6664 553c 5e84 363d 547d d23b
000000b0: b931 af3c 2fc6 abbc 0bc0 89bd 9aed 44bd
000000c0: a3bd 06bd db4a 033d 252c 6f3c 6580 1ebd
000000d0: 1af2 803d bdb5 5b3d a767 a43d 06cf e2bc
000000e0: 5b17 8f3d 020b 933d 4b64 f33c 662e 02bd
000000f0: ee67 023c dd90 5d3d 6ec3 423d 8b23 543d
00000100: 2fd5 99bd 47cc 40bd 2749 943d 3360 173d
00000110: d4f7 febc 5880 203d ca81 963d a279 813d
00000120: a26d 59bd 391d bfbc 911c 6fbc 8d1b 0bbc
00000130: abfa f53c 983e 633d f950 513d 9e60 453c
00000140: f367 123c 2b32 ee3a 89af 32bd f76e 713c
00000150: 00cc 85bd 98ff fd3b d9ee 353c a268 fe3b
00000160: b9bf a3bd e438 953c 79cf 863b 7b38 5ebc
00000170: 3fb5 823b a133 4cbd 2630 103d 5b11 fe3c
00000180: be1b 873d bef5 803c b1f0 3fbd 5e02 d8bc
00000190: 1dd8 be3c 780c 573d 5098 60bb 6782 b9bc
000001a0: 6498 8cba d584 af3b 521d 18bd cfbd a6bc
000001b0: 7452 4dbd 4b6f 4abd 8cc2 24bc c2e2 d03c
000001c0: 4947 243c 5dd9 30bd 1acc 65bd eb40 30bd
000001d0: ca35 dabd 1134 d5bb e08f 723c f539 c13c
000001e0: 6a93 2dbd 1f99 84bd c6c5 e43c b533 be3d
000001f0: 0e1d 913d 70bd 973c f89c 643d 0dad 5c3d
00000200: 3c2d 1bbc 514f d2bb a7a1 613d 3e62 cfbc
00000210: 5c11 dcbc 67c0 493d 3e96 a73d 9a58 4abd
00000220: 0648 0f3d adbc 703d 9008 913d 4d5e 64bd
00000230: 6ceb 9fbd 5ba2 cc3b ca77 f63d 7574 093b
00000240: 2c30 7d3d 3b9e 583d 3c48 133d b18e bfbc
00000250: 2834 dd3c 9b74 813d 76ef 073d 5810 903d
00000260: 953f a8bc b619 b83c 915e 283c 0e85 ca3c
00000270: 5cec 943b f856 653c 30dd 3cbd c2de 07bd
00000280: 229a 533b 8352 01be 914e e2bd bd07 29bc
00000290: 661e 2d3d 352d 573c bffa c43c 4c88 0ebd
000002a0: 8c88 edbb 2ce4 c73c 8e3e efb9 0582 5fbb
000002b0: 2a2a b53b 19b6 013d 702f c33d 5b9f 22bd
000002c0: 59bb a63c 9431 963d 4a1f 53bc 8833 41bd
000002d0: 42a0 2e3d bf6d d6bb 511e 1dbb bc63 d43c
000002e0: ba24 413d 0e94 673d 4069 cd3b 0dcd 8c3b
000002f0: 5ce7 993d 301d cd3c 2a96 17bc 38a6 103d
00000300: 97cd eabc 3f1f fa3b e710 36bd 0811 ba3c
00000310: 638f 6c3d 16dd babc 8dcd 47bd 9490 233d
00000320: 297f 51bc 1c25 363d f527 413d fbab abbc
00000330: 0c04 72bc 6a5f 17bd daac 4a3d 4391 1dbd
00000340: 4226 473d 8f50 733d 1cb4 0d3e 5379 8b3d
00000350: c717 fb3d 9a93 a03c a6f3 803d 6129 f3bc
00000360: 934d 793d 74ca a23b 2b49 0d3d 5b8f ea3c
00000370: 7151 15bd b9ef 6b3d f51a d7bc a64a 923a
00000380: a6a7 85bd 8f8f dbbc 17f7 4bbc 15b4 093d
00000390: 4a6c e8bb 6bb7 61bc 5028 30bc e1bd 523a
000003a0: 8399 4abc badd d6bc ebd6 523c 724e a0bb
000003b0: c27f 663d 4ddb adbc b34f 84bd 916b 0bba
000003c0: 0229 593d 6570 b03d e591 aa3d 45f0 93bd
000003d0: 4916 613c 9add 863d 8586 dcbc 3199 2d3d
000003e0: 5fdd 3cbc c2b1 d7bc 50d6 ccbc a124 693d
000003f0: 803c b13c 68fc dbbc e1b0 4f3b c31b 2f3d

fc2.weight f4 [10, 50]
-0.20127334 0.02813966 -0.024338318 0.04814009 -0.021900516 -0.17088889 -0.22967093 0.12013111
-0.10818576 -0.10629667 0.15833952 0.15186398 -0.0001615636 -0.060269088 0.2578435 0.2842675
0.278243 0.08814148 0.052412156 0.07028818 -0.2519479 0.15787247 -0.03958719 -0.23132265
-0.21065336 0.055731263 -0.068485685 0.117846936 0.14491762 0.096323594 0.12784559 0.26427594
-0.07805453 0.088198185 0.20607437 -0.157973 -0.13988018 -0.22688258 0.001956365 0.016815135
0.15007825 0.06323487 -0.0377152 -0.029607885 -0.041881904 -0.32875618 0.13284181 0.045623362
0.24272029 -0.12276291 -0.061078627 0.10508223 -0.03963836 0.12708928 0.13425907 -0.03472932
0.15155211 -0.08766935 -0.13580921 -0.10125194 -0.15310559 0.11364239 -0.014442654 -0.13618389
-0.4390687 0.21207154 -0.01078304 -0.20114745 0.12921365 -0.12280769 0.049118835 0.16720113
0.15927519 -0.36726466 -0.08256896 0.11125942 -0.13777934 -0.12457848 0.16193965 0.1877823
0.23278448 0.062199865 0.15550984 -0.009357595 -0.17508604 -0.06715872 -0.18514955 -0.12725058
-0.019082906 -0.08550282 -0.24119826 -0.10349419 0.010866195 -0.03813362 0.09847126 0.25703457
0.10895581 0.23504598 0.15445773 0.07224544 0.09014043 -0.28010947 -0.033844143 -0.19032107
0.087627865 -0.2638879 -0.10384093 -0.13935907 0.18648212 0.15625736 -0.077350795 0.10041961
0.29650596 -0.01107587 -0.10395332 0.1646461 -0.03261197 -0.04519486 -0.119320065 -0.23695378
-0.025258109 -0.1187949 0.29954746 0.066981174 0.021110967 0.20781277 -0.053441484 -0.052075975
0.2656969 -0.010703326 0.09645056 0.3073585 -0.2425438 0.20628141 0.19595274 0.19501942
-0.22985852 0.07206529 -0.030745126 -0.11277085 0.042778317 0.25949052 -0.051468257 -0.038890243
0.011735679 -0.2555221 0.06427023 0.12226461 -0.31196177 0.0310394 0.05726199 0.23041204
0.06029812 0.11758561 0.2657464 -0.22709449 -0.23636746 0.1079846 0.03790506 0.11416543
0.24950254 0.064603716 -0.15316574 -0.038392972 0.06268694 -0.009399417 -0.08754317 -0.020188196
0.027452895 0.32524917 -0.09027195 0.13584 0.12829472 -0.10070502 0.10959362 -0.22364701
-0.12947312 0.10440322 -0.14262514 0.010917999 -0.0567598 -0.12850174 -0.3257231 -0.039087497
-0.20821327 0.31147793 0.35527384 -0.09083656 0.12882462 0.01904283 0.15438344 0.03697332
0.074948 0.12693055 -0.042131547 -0.050406918 -0.07855035 -0.02989858 -0.19652784 -0.1325925
-0.054458443 0.024096979 -0.1394565 -0.1515998 -0.2569082 -0.06971692 -0.14738336 0.06748899
-0.14283161 0.0004829641 -0.2509292 -0.050604444 -0.03186331 -0.15973824 0.13017015 -0.032321524
-0.22270094 -0.22084509 0.23174874 0.014816934 0.48288676 0.0006981012 -0.043467257 0.11270442
0.001495485 0.14661795 0.13163978 0.029139828 -0.20406456 0.080433264 0.09260987 0.23991194
0.25627372 -0.1338013 0.068044506 -0.35082752 -0.039943084 0.1618603 0.06561155 -0.035057284
-0.14226007 0.2381788 -0.076332875 -0.085931934 0.13752465 0.050051812 -0.054482136 0.11193238
-0.020547653 0.05607591 0.044774994 0.2600828 0.112793505 -0.08409035 -0.15383083 0.03675936
00000000: 991a 4ebe 2585 e63c 2761 c7bc 8b2e 453d
00000010: b668 b3bc 7ffd 2ebe db2e 6bbe 4d07 f63d
00000020: 7f90 ddbd 12b2 d9bd c123 223e 3b82 1b3e
00000030: 6669 29b9 b8dc 76bd 1004 843e 828b 913e
00000040: de75 8e3e 8583 b43d 21ae 563d 40f3 8f3d
00000050: 51ff 80be 52a9 213e 2d26 22bd d8df 6cbe
00000060: 84b5 57be 7746 643d 3942 8cbd bc59 f13d
00000070: 4965 143e 4e45 c53d f4e9 023e 2d4f 873e
00000080: 0edb 9fbd 40a1 b43d 2905 533e adc3 21be
00000090: c03c 0fbe e853 68be 5c36 003b e5bf 893c
000000a0: 1dae 193e 4981 813d 417b 1abd 3c8c f2bc
000000b0: 5c8c 2bbd bb52 a8be af07 083e 90df 3a3d
000000c0: ab8b 783e 1f6b fbbd 952d 7abd 5a35 d73d
000000d0: d55b 22bd b123 023e 367b 093e 5540 0ebd
000000e0: 7a30 1b3e fd8b b3bd 9211 0bbe 2d5d cfbd
000000f0: b6c7 1cbe 57bd e83d e2a0 6cbc ca73 0bbe
00000100: 9dcd e0be 4829 593e 59ab 30bc 99f9 4dbe
00000110: 9550 043e 9982 fbbd d530 493d c636 2b3e
00000120: 0919 233e 1d0a bcbe ea19 a9bd fbdb e33d
00000130: 0716 0dbe 0123 ffbd 82d3 253e 014a 403e
00000140: 0e5f 6e3e 49c5 7e3d f93d 1f3e 9950 19bc
00000150: c149 33be 838a 89bd d897 3dbe fa4d 02be
00000160: c153 9cbc 1a1c afbd adfc 76be c3f4 d3bd
00000170: 2008 323c 0032 1cbd 4dab c93d 099a 833e
00000180: 3924 df3d e5af 703e 2b2a 1e3e 6bf5 933d
00000190: 8c9b b83d 826a 8fbe 28a0 0abd 87e3 42be
000001a0: 3d76 b33d 511c 87be 8eaa d4bd 25b4 0ebe
000001b0: 2bf5 3e3e ee01 203e 186a 9ebd cca8 cd3d
000001c0: a1cf 973e 9177 35bc 7ae5 d4bd fd98 283e
000001d0: 2194 05bd 3f1e 39bd 145e f4bd 03a4 72be
000001e0: 18ea cebc be4a f3bd 495e 993e 6d2d 893d
000001f0: e8f0 ac3c dfcc 543e 75e5 5abd 9e4d 55bd
00000200: 6d09 883e 015d 2fbc df87 c53d 185e 9d3e
00000210: 675d 78be 6f3b 533e d6a7 483e 2cb3 473e
00000220: 0860 6bbe f796 933d 34dd fbbc 67f4 e6bd
00000230: 5138 2f3d f1db 843e 61d0 52bd 604b 1fbd
00000240: 0147 403c cbd3 82be 1ca0 833d de65 fa3d
00000250: 74b9 9fbe 5746 fe3c 8c8b 6a3d 22f1 6b3e
00000260: 29fb 763d b9d0 f03d ea0f 883e 758b 68be
00000270: 500a 72be 0827 dd3d 5642 1b3d 91cf e93d
00000280: 987d 7f3e f44e 843d 7bd7 1cbe f341 1dbd
00000290: 0362 803d 0300 1abc d549 b3bd b761 a5bc
000002a0: e5e4 e03c 0f87 a63e 80e0 b8bd a419 0b3e
000002b0: b15f 033e 6f3e cebd 9f72 e03d b903 65be
000002c0: 9a94 04be 5bd1 d53d 530c 12be 68e1 323c
000002d0: f77c 68bd f695 03be 2ec5 a6be 361a 20bd
000002e0: dc35 55be 097a 9f3e 74e6 b53e 8508 babd
000002f0: 9aea 033e b6ff 9b3c b116 1e3e 5671 173d
00000300: 567e 993d 15fa 013e 2192 2cbd 7c77 4ebd
00000310: 02df a0bd deed f4bc 983e 49be 54c6 07be
00000320: d10f 5fbd 0767 c53c afcd 0ebe fa3c 1bbe
00000330: 7989 83be bfc7 8ebd aaeb 16be ab37 8a3d
00000340: 7342 12be 5836 fd39 cb79 80be 9b46 4fbd
00000350: 1a83 02bd 6c92 23be 534b 053e 9363 04bd
00000360: b70b 64be 3725 62be 8b4f 6d3e bac2 723c
00000370: ef3c f73e c700 373a b90a 32bd 93d1 e63d
00000380: 2604 c43a 0423 163e 94cc 063e a6b6 ee3c
00000390: 4df6 50be 32ba a43d 3eaa bd3d 7aab 753e
000003a0: 4f36 833e 3503 09be eb5a 8b3d aa9f b3be
000003b0: 5c9b 23bd b5be 253e 595f 863d 3a98 0fbd
000003c0: a0ac 11be 25e5 733e 6954 9cbd 15fd afbd
000003d0: 43d3 0c3e 2103 4d3d a928 5fbd ce3c e53d
000003e0: 8d53 a8bc daaf 653d fc65 373d 9329 853e
000003f0: 4800 e73d 9037 acbd d485 1dbe fc90 163d
